('CUDA devices: ', <class 'torch.cuda.device'>)
('GPU numbers: ', 1L)
Initializing weights...
Conv2d(1024, 256, kernel_size=(1, 1), stride=(1, 1))
ReLU(inplace)
Conv2d(256, 512, kernel_size=(3, 3), stride=(2, 2), padding=(1, 1))
ReLU(inplace)
ModuleList(
  (0): Conv2d(1024, 256, kernel_size=(1, 1), stride=(1, 1))
  (1): ReLU(inplace)
  (2): Conv2d(256, 512, kernel_size=(3, 3), stride=(2, 2), padding=(1, 1))
  (3): ReLU(inplace)
)
Conv2d(512, 256, kernel_size=(3, 3), stride=(1, 1), padding=(1, 1))
BatchNorm2d(256, eps=1e-05, momentum=0.1, affine=True)
Conv2d(256, 256, kernel_size=(3, 3), stride=(1, 1), padding=(1, 1))
ConvTranspose2d(512, 256, kernel_size=(3, 3), stride=(2, 2), padding=(1, 1), output_padding=(1, 1))
BatchNorm2d(256, eps=1e-05, momentum=0.1, affine=True)
Conv2d(256, 256, kernel_size=(3, 3), stride=(1, 1), padding=(1, 1))
BatchNorm2d(256, eps=1e-05, momentum=0.1, affine=True)
TCB(
  (conv1): Conv2d(512, 256, kernel_size=(3, 3), stride=(1, 1), padding=(1, 1))
  (bn1): BatchNorm2d(256, eps=1e-05, momentum=0.1, affine=True)
  (conv2): Conv2d(256, 256, kernel_size=(3, 3), stride=(1, 1), padding=(1, 1))
  (deconv1): ConvTranspose2d(512, 256, kernel_size=(3, 3), stride=(2, 2), padding=(1, 1), output_padding=(1, 1))
  (bn2): BatchNorm2d(256, eps=1e-05, momentum=0.1, affine=True)
  (conv3): Conv2d(256, 256, kernel_size=(3, 3), stride=(1, 1), padding=(1, 1))
  (bn3): BatchNorm2d(256, eps=1e-05, momentum=0.1, affine=True)
)
Conv2d(512, 256, kernel_size=(3, 3), stride=(1, 1), padding=(1, 1))
BatchNorm2d(256, eps=1e-05, momentum=0.1, affine=True)
Conv2d(256, 256, kernel_size=(3, 3), stride=(1, 1), padding=(1, 1))
ConvTranspose2d(1024, 256, kernel_size=(3, 3), stride=(2, 2), padding=(1, 1), output_padding=(1, 1))
BatchNorm2d(256, eps=1e-05, momentum=0.1, affine=True)
Conv2d(256, 256, kernel_size=(3, 3), stride=(1, 1), padding=(1, 1))
BatchNorm2d(256, eps=1e-05, momentum=0.1, affine=True)
TCB(
  (conv1): Conv2d(512, 256, kernel_size=(3, 3), stride=(1, 1), padding=(1, 1))
  (bn1): BatchNorm2d(256, eps=1e-05, momentum=0.1, affine=True)
  (conv2): Conv2d(256, 256, kernel_size=(3, 3), stride=(1, 1), padding=(1, 1))
  (deconv1): ConvTranspose2d(1024, 256, kernel_size=(3, 3), stride=(2, 2), padding=(1, 1), output_padding=(1, 1))
  (bn2): BatchNorm2d(256, eps=1e-05, momentum=0.1, affine=True)
  (conv3): Conv2d(256, 256, kernel_size=(3, 3), stride=(1, 1), padding=(1, 1))
  (bn3): BatchNorm2d(256, eps=1e-05, momentum=0.1, affine=True)
)
Conv2d(1024, 256, kernel_size=(3, 3), stride=(1, 1), padding=(1, 1))
BatchNorm2d(256, eps=1e-05, momentum=0.1, affine=True)
Conv2d(256, 256, kernel_size=(3, 3), stride=(1, 1), padding=(1, 1))
ConvTranspose2d(512, 256, kernel_size=(3, 3), stride=(2, 2), padding=(1, 1), output_padding=(1, 1))
BatchNorm2d(256, eps=1e-05, momentum=0.1, affine=True)
Conv2d(256, 256, kernel_size=(3, 3), stride=(1, 1), padding=(1, 1))
BatchNorm2d(256, eps=1e-05, momentum=0.1, affine=True)
TCB(
  (conv1): Conv2d(1024, 256, kernel_size=(3, 3), stride=(1, 1), padding=(1, 1))
  (bn1): BatchNorm2d(256, eps=1e-05, momentum=0.1, affine=True)
  (conv2): Conv2d(256, 256, kernel_size=(3, 3), stride=(1, 1), padding=(1, 1))
  (deconv1): ConvTranspose2d(512, 256, kernel_size=(3, 3), stride=(2, 2), padding=(1, 1), output_padding=(1, 1))
  (bn2): BatchNorm2d(256, eps=1e-05, momentum=0.1, affine=True)
  (conv3): Conv2d(256, 256, kernel_size=(3, 3), stride=(1, 1), padding=(1, 1))
  (bn3): BatchNorm2d(256, eps=1e-05, momentum=0.1, affine=True)
)
Conv2d(512, 256, kernel_size=(3, 3), stride=(1, 1), padding=(1, 1))
BatchNorm2d(256, eps=1e-05, momentum=0.1, affine=True)
Conv2d(256, 256, kernel_size=(3, 3), stride=(1, 1), padding=(1, 1))
ConvTranspose2d(512, 256, kernel_size=(3, 3), stride=(2, 2), padding=(1, 1), output_padding=(1, 1))
BatchNorm2d(256, eps=1e-05, momentum=0.1, affine=True)
Conv2d(256, 256, kernel_size=(3, 3), stride=(1, 1), padding=(1, 1))
BatchNorm2d(256, eps=1e-05, momentum=0.1, affine=True)
TCB(
  (conv1): Conv2d(512, 256, kernel_size=(3, 3), stride=(1, 1), padding=(1, 1))
  (bn1): BatchNorm2d(256, eps=1e-05, momentum=0.1, affine=True)
  (conv2): Conv2d(256, 256, kernel_size=(3, 3), stride=(1, 1), padding=(1, 1))
  (deconv1): ConvTranspose2d(512, 256, kernel_size=(3, 3), stride=(2, 2), padding=(1, 1), output_padding=(1, 1))
  (bn2): BatchNorm2d(256, eps=1e-05, momentum=0.1, affine=True)
  (conv3): Conv2d(256, 256, kernel_size=(3, 3), stride=(1, 1), padding=(1, 1))
  (bn3): BatchNorm2d(256, eps=1e-05, momentum=0.1, affine=True)
)
ModuleList(
  (0): TCB(
    (conv1): Conv2d(512, 256, kernel_size=(3, 3), stride=(1, 1), padding=(1, 1))
    (bn1): BatchNorm2d(256, eps=1e-05, momentum=0.1, affine=True)
    (conv2): Conv2d(256, 256, kernel_size=(3, 3), stride=(1, 1), padding=(1, 1))
    (deconv1): ConvTranspose2d(512, 256, kernel_size=(3, 3), stride=(2, 2), padding=(1, 1), output_padding=(1, 1))
    (bn2): BatchNorm2d(256, eps=1e-05, momentum=0.1, affine=True)
    (conv3): Conv2d(256, 256, kernel_size=(3, 3), stride=(1, 1), padding=(1, 1))
    (bn3): BatchNorm2d(256, eps=1e-05, momentum=0.1, affine=True)
  )
  (1): TCB(
    (conv1): Conv2d(512, 256, kernel_size=(3, 3), stride=(1, 1), padding=(1, 1))
    (bn1): BatchNorm2d(256, eps=1e-05, momentum=0.1, affine=True)
    (conv2): Conv2d(256, 256, kernel_size=(3, 3), stride=(1, 1), padding=(1, 1))
    (deconv1): ConvTranspose2d(1024, 256, kernel_size=(3, 3), stride=(2, 2), padding=(1, 1), output_padding=(1, 1))
    (bn2): BatchNorm2d(256, eps=1e-05, momentum=0.1, affine=True)
    (conv3): Conv2d(256, 256, kernel_size=(3, 3), stride=(1, 1), padding=(1, 1))
    (bn3): BatchNorm2d(256, eps=1e-05, momentum=0.1, affine=True)
  )
  (2): TCB(
    (conv1): Conv2d(1024, 256, kernel_size=(3, 3), stride=(1, 1), padding=(1, 1))
    (bn1): BatchNorm2d(256, eps=1e-05, momentum=0.1, affine=True)
    (conv2): Conv2d(256, 256, kernel_size=(3, 3), stride=(1, 1), padding=(1, 1))
    (deconv1): ConvTranspose2d(512, 256, kernel_size=(3, 3), stride=(2, 2), padding=(1, 1), output_padding=(1, 1))
    (bn2): BatchNorm2d(256, eps=1e-05, momentum=0.1, affine=True)
    (conv3): Conv2d(256, 256, kernel_size=(3, 3), stride=(1, 1), padding=(1, 1))
    (bn3): BatchNorm2d(256, eps=1e-05, momentum=0.1, affine=True)
  )
  (3): TCB(
    (conv1): Conv2d(512, 256, kernel_size=(3, 3), stride=(1, 1), padding=(1, 1))
    (bn1): BatchNorm2d(256, eps=1e-05, momentum=0.1, affine=True)
    (conv2): Conv2d(256, 256, kernel_size=(3, 3), stride=(1, 1), padding=(1, 1))
    (deconv1): ConvTranspose2d(512, 256, kernel_size=(3, 3), stride=(2, 2), padding=(1, 1), output_padding=(1, 1))
    (bn2): BatchNorm2d(256, eps=1e-05, momentum=0.1, affine=True)
    (conv3): Conv2d(256, 256, kernel_size=(3, 3), stride=(1, 1), padding=(1, 1))
    (bn3): BatchNorm2d(256, eps=1e-05, momentum=0.1, affine=True)
  )
)
Conv2d(512, 12, kernel_size=(3, 3), stride=(1, 1), padding=(1, 1))
Conv2d(512, 12, kernel_size=(3, 3), stride=(1, 1), padding=(1, 1))
Conv2d(1024, 12, kernel_size=(3, 3), stride=(1, 1), padding=(1, 1))
Conv2d(512, 12, kernel_size=(3, 3), stride=(1, 1), padding=(1, 1))
ModuleList(
  (0): Conv2d(512, 12, kernel_size=(3, 3), stride=(1, 1), padding=(1, 1))
  (1): Conv2d(512, 12, kernel_size=(3, 3), stride=(1, 1), padding=(1, 1))
  (2): Conv2d(1024, 12, kernel_size=(3, 3), stride=(1, 1), padding=(1, 1))
  (3): Conv2d(512, 12, kernel_size=(3, 3), stride=(1, 1), padding=(1, 1))
)
Conv2d(512, 6, kernel_size=(3, 3), stride=(1, 1), padding=(1, 1))
Conv2d(512, 6, kernel_size=(3, 3), stride=(1, 1), padding=(1, 1))
Conv2d(1024, 6, kernel_size=(3, 3), stride=(1, 1), padding=(1, 1))
Conv2d(512, 6, kernel_size=(3, 3), stride=(1, 1), padding=(1, 1))
ModuleList(
  (0): Conv2d(512, 6, kernel_size=(3, 3), stride=(1, 1), padding=(1, 1))
  (1): Conv2d(512, 6, kernel_size=(3, 3), stride=(1, 1), padding=(1, 1))
  (2): Conv2d(1024, 6, kernel_size=(3, 3), stride=(1, 1), padding=(1, 1))
  (3): Conv2d(512, 6, kernel_size=(3, 3), stride=(1, 1), padding=(1, 1))
)
Conv2d(256, 12, kernel_size=(3, 3), stride=(1, 1), padding=(1, 1))
Conv2d(256, 12, kernel_size=(3, 3), stride=(1, 1), padding=(1, 1))
Conv2d(256, 12, kernel_size=(3, 3), stride=(1, 1), padding=(1, 1))
Conv2d(256, 12, kernel_size=(3, 3), stride=(1, 1), padding=(1, 1))
ModuleList(
  (0): Conv2d(256, 12, kernel_size=(3, 3), stride=(1, 1), padding=(1, 1))
  (1): Conv2d(256, 12, kernel_size=(3, 3), stride=(1, 1), padding=(1, 1))
  (2): Conv2d(256, 12, kernel_size=(3, 3), stride=(1, 1), padding=(1, 1))
  (3): Conv2d(256, 12, kernel_size=(3, 3), stride=(1, 1), padding=(1, 1))
)
Conv2d(256, 63, kernel_size=(3, 3), stride=(1, 1), padding=(1, 1))
Conv2d(256, 63, kernel_size=(3, 3), stride=(1, 1), padding=(1, 1))
Conv2d(256, 63, kernel_size=(3, 3), stride=(1, 1), padding=(1, 1))
Conv2d(256, 63, kernel_size=(3, 3), stride=(1, 1), padding=(1, 1))
ModuleList(
  (0): Conv2d(256, 63, kernel_size=(3, 3), stride=(1, 1), padding=(1, 1))
  (1): Conv2d(256, 63, kernel_size=(3, 3), stride=(1, 1), padding=(1, 1))
  (2): Conv2d(256, 63, kernel_size=(3, 3), stride=(1, 1), padding=(1, 1))
  (3): Conv2d(256, 63, kernel_size=(3, 3), stride=(1, 1), padding=(1, 1))
)
Loading base network...
(u'0.weight', (64L, 3L, 3L, 3L))
(u'0.bias', (64L,))
(u'2.weight', (64L, 64L, 3L, 3L))
(u'2.bias', (64L,))
(u'5.weight', (128L, 64L, 3L, 3L))
(u'5.bias', (128L,))
(u'7.weight', (128L, 128L, 3L, 3L))
(u'7.bias', (128L,))
(u'10.weight', (256L, 128L, 3L, 3L))
(u'10.bias', (256L,))
(u'12.weight', (256L, 256L, 3L, 3L))
…
